examples/gp/gp.pt (torch, 8922 bytes, 12 tensors)

likelihood.raw_task_noises f4 [2]
-13.590821 -5.134514
00000000: 0174 59c1 f04d a4c0

bimoegp.likelihood.raw_task_noises f4 [2]
-13.590821 -5.134514
00000000: 0174 59c1 f04d a4c0

bimoegp.mean_module.raw_constant f4 [2]
-0.02464496 -0.059451424
00000000: 3ae4 c9bc 5683 73bd

bimoegp.covar_module.raw_outputscale f4 [2]
-0.3977607 0.32413587
00000000: 4aa7 cbbe 23f5 a53e

bimoegp.covar_module.base_kernel.raw_lengthscale f4 [2, 1, 1]
-2.2419205 -2.1967916
00000000: a07b 0fc0 3c98 0cc0

mll.likelihood.raw_task_noises f4 [2]
-13.590821 -5.134514
00000000: 0174 59c1 f04d a4c0

mll.model.likelihood.raw_task_noises f4 [2]
-13.590821 -5.134514
00000000: 0174 59c1 f04d a4c0

mll.model.mean_module.raw_constant f4 [2]
-0.02464496 -0.059451424
00000000: 3ae4 c9bc 5683 73bd

mll.model.covar_module.raw_outputscale f4 [2]
-0.3977607 0.32413587
00000000: 4aa7 cbbe 23f5 a53e

mll.model.covar_module.base_kernel.raw_lengthscale f4 [2, 1, 1]
-2.2419205 -2.1967916
00000000: a07b 0fc0 3c98 0cc0

train_input_data f4 [8, 1]
0.25252524 0.22222222 0.7979798 0.83838385 0.85858583 0.959596 0.6262626 0.6060606
00000000: fd4a 813e 398e 633e 6748 4c3f 53a0 563f
00000010: 48cc 5b3f 15a8 753f bf52 203f ca26 1b3f

train_output_data f4 [8, 2]
0.08110006 -1.001376 0.33367956 -0.94847846 -0.6614385 -0.91580796 -0.93274003 -0.35495752
-0.9328873 -0.25464725 -0.53045976 0.7965171 1.0675955 -0.066908866 0.92994803 0.29392546
00000000: ca17 a63d 172d 80bf 0cd8 aa3e 7ccf 72bf
00000010: 0954 29bf 6472 6abf 0dc8 6ebf febc b5be
00000020: b4d1 6ebf 2061 82be 36cc 07bf 8be8 4b3f
00000030: f8a6 883f 8407 89bd 1311 6e3f 667d 963e
