examples/mlp/mlp.onnx (onnx, 43602 bytes, 6 tensors)

model.linear1.weight f4 [100, 1]
000000 ef b5 9e bb 3c 26 ef 3e 09 64 13 bf 81 05 13 bf
       -0.0048434655 0.46708858 -0.57574517 -0.57430273
000010 bf bd 03 bf 33 79 b4 3e d1 a8 cb be 05 ae 50 3f
       -0.51461405 0.35248718 -0.39777234 0.8151553
000020 46 6a 06 bf 6b 37 0c 3e 48 22 0b bf b7 90 ac bd
       -0.5250591 0.13693015 -0.54349184 -0.0842604
000030 9a b9 23 bf 01 a3 71 bf 89 0e 40 bf f8 0a 1a 3f
       -0.6395508 -0.9438935 -0.7502218 0.60172987
000040 cb f2 fb 3e 37 99 db 3e 08 8f 1a bf 70 06 0c bf
       0.49208674 0.4289033 -0.603745 -0.5469732
000050 27 f4 af 3e 21 11 36 3f ab 01 11 bf fe 66 0b 3f
       0.3436596 0.71119887 -0.5664317 0.5445403
000060 52 8b 06 bf f4 04 1a 3f 56 17 28 3f 23 1f 17 bf
       -0.52556336 0.6016381 0.6566061 -0.59031886
000070 9e 98 13 bf 7d 4a 0b bf cf 4a 12 bf d2 4a 55 3f
       -0.5765475 -0.54410535 -0.571454 0.8331729
000080 00 b4 07 bf 4d b4 0b bf 5f 67 48 bf 1e 91 25 bf
       -0.53009033 -0.5457199 -0.7828273 -0.64674556
000090 e0 92 15 bf e4 97 4f 3f f6 5a 3b 3e f3 60 b1 3d
       -0.5842724 0.8109114 0.18296418 0.0866107
0000a0 8b d7 1c bd fb de 51 bf b0 6d 7b 3d 7e 70 25 bf
       -0.038291495 -0.81980866 0.061383903 -0.64624774
0000b0 83 87 04 bf dd 08 0a bf 7a 89 9c 3e a9 43 06 3f
       -0.51769274 -0.53919774 0.30573636 0.5244699
0000c0 02 06 07 bf a7 4e f8 be e3 d6 4e 3f 20 34 6d 3f
       -0.5274354 -0.48497507 0.8079664 0.9265766
0000d0 ab 8a 02 3f 9b 46 34 bd 81 e3 bc 3e 27 8b 04 bf
       0.5099284 -0.044012647 0.36892322 -0.5177483
0000e0 41 b6 99 bc 12 bf 09 bf 4b ab 18 bf 32 1d 0e bf
       -0.018763663 -0.53807175 -0.5963637 -0.555133
0000f0 f2 af fa 3e 63 de e3 3e 52 a2 07 bf cd 8c 3b 3f
       0.4896236 0.44505605 -0.52982056 0.7326172
000100 e9 03 04 3f ea 10 0a bf fa 64 0c 3f 82 6c e3 3d
       0.51568466 -0.5393206 0.5484158 0.111046806
000110 3f 37 3c 3f ed 46 4a 3f 4d 61 80 bf 3d 5d 0a bf
       0.735218 0.79014474 -1.0029694 -0.5404852
000120 48 58 c8 3e e9 9c 2c 3f 3e a8 57 3f 23 b5 59 3f
       0.39129853 0.67426926 0.8424109 0.8504202
000130 ed a9 df 3e 4c c3 1e bf 7e 4c dd bc f7 03 08 bf
       0.4368433 -0.6201675 -0.027014013 -0.5313105
000140 3f 8c 31 bf ec 16 4c 3f b4 8d 12 3f f8 43 6d bf
       -0.69354624 0.79722476 0.5724747 -0.9268184
000150 73 e7 26 be 4c dc f9 bd 1f 75 11 bf 3c 3f 0b bf
       -0.16299228 -0.122002214 -0.5681934 -0.54393363
000160 77 c0 3a 3f 8a f9 5e bf b0 b2 a3 3e ba 35 b9 3e
       0.7294993 -0.87099516 0.31972265 0.36173803
000170 c5 a5 33 3f e2 84 bc 3e af 51 8c bf a7 35 0c bf
       0.7017482 0.36820132 -1.0962428 -0.54769367
000180 13 a1 17 3f d6 94 1d 3e 28 f0 18 bf ca b3 10 bf
       0.59230155 0.15388808 -0.5974145 -0.56524336

model.linear1.bias f4 [100]
000000 7e 4c c2 3f 72 77 27 3f 84 d9 12 3f 1a 0a 17 3f
       1.5179594 0.65416634 0.5736315 0.5899979
000010 01 82 b0 3e 60 40 cd be c8 34 67 be 87 d7 ce bf
       0.34474185 -0.40088177 -0.22578728 -1.6159524
000020 86 14 c6 3e 8a 39 ae 3d ad f3 d2 3e 61 fd 07 40
       0.38687533 0.085070685 0.41201535 2.12484
000030 21 0f d3 3e 00 98 2f 40 98 8b c0 3f 81 c1 aa bf
       0.4122248 2.7436523 1.5042601 -1.3340303
000040 69 02 22 bf 6b d0 86 be 26 cb 2c 3f a1 32 07 40
       -0.6328493 -0.26330885 0.6749748 2.1124651
000050 e2 25 fe 3e 5c 00 95 bd 7c ec 13 3f 10 23 b7 3e
       0.49638277 -0.07275459 0.5778272 0.35768938
000060 d1 ea e3 3e e5 5b 99 bf b3 3b 05 bf 48 9d 0c 3f
       0.44515088 -1.1981169 -0.5204422 0.5492749
000070 4f 06 16 3f b5 9d f4 3e f7 59 19 3f 0f 42 2b 3e
       0.58603376 0.4777657 0.599029 0.16724418
000080 d6 82 9b 3e c6 a1 d4 3e b8 b9 f1 3f ed 35 5c 3f
       0.30373257 0.41529673 1.8884802 0.86019784
000090 03 af 1a 3f e1 70 37 be bf 13 44 3e 7e ae 0f 3f
       0.60423297 -0.17914154 0.19148158 0.5612563
0000a0 06 01 ba 3f d6 5e 07 40 24 16 ac 3f 31 32 49 3f
       1.4531562 2.1151633 1.3444257 0.7859221
0000b0 32 96 6d 3e 4a 7f cf 3e 81 6d 0d 3f 66 d2 39 be
       0.23201826 0.405268 0.55245215 -0.18146667
0000c0 bb c5 b0 3e 4a 6d 37 3e 67 98 d6 bf ef 52 a1 bf
       0.34525856 0.17912784 -1.676526 -1.2603434
0000d0 79 80 13 bf 04 4e 6e 3f 5c c8 d1 3e 76 ce 97 3e
       -0.5761791 0.9308779 0.40973175 0.29649705
0000e0 ee 41 88 3f 2e 3b c9 3e 6b 14 2e 3f fd 15 f5 3e
       1.064512 0.39302963 0.67999905 0.47868338
0000f0 86 6d 3c bf 74 e8 16 bf 2f 92 c8 3e 36 fc ce bf
       -0.7360462 -0.58948445 0.3917403 -1.6170719
000100 27 df 9f be 20 e8 a5 3e d1 47 85 bf 3d 5f e1 3e
       -0.3122494 0.3240366 -1.0412542 0.44017974
000110 86 64 bf bf 2c 93 30 be 01 af 40 40 97 5b e4 3e
       -1.4952552 -0.17243642 3.0106814 0.44601128
000120 16 af b9 3f 12 41 93 3e ab 5f d3 bf 84 07 41 3f
       1.4506557 0.28760582 -1.651357 0.7540209
000130 9b 6d 1a bf d9 aa 41 3f 06 e2 c2 3f 95 69 af 3e
       -0.60323495 0.7565132 1.5225227 0.3426024
000140 90 7c 84 3f 6c d7 e7 be b8 8c 34 3f d9 cb ad 3f
       1.0350513 -0.4528154 0.7052722 1.3577834
000150 e1 a2 c6 3f 92 8c 9d 3f 1a 94 03 3f ad aa f1 3e
       1.5518457 1.2308524 0.5139786 0.47200528
000160 d2 1e cb bf 36 f0 16 40 b5 7d aa 3f d5 5f c6 3f
       -1.5868781 2.3584113 1.3319613 1.5497996
000170 b6 4f 87 bf 7b 7f e1 bd a6 1c 21 3e 62 39 d8 3e
       -1.0571201 -0.11010643 0.15733585 0.4223128
000180 18 d4 7a bf a8 9c cb 3e 05 98 21 3f 3c 3f 03 3f
       -0.9797988 0.39767957 0.6312259 0.51268363

model.linear2.weight f4 [100, 100]
000000 4e de 6a bd 00 41 8f 3c 04 4b 5d bc d6 57 70 bc
       -0.057340913 0.01748705 -0.013506655 -0.014669379
000010 88 32 bf bb 8d bc c2 3c e4 92 8a 3c f2 9e 57 3d
       -0.005834881 0.023771549 0.016915746 0.052641816
000020 f5 76 b8 3d 5e 3c 04 bd 46 ef 32 3d 23 13 d8 bd
       0.09007064 -0.032284133 0.04368522 -0.10550525
000030 36 8f 0a 3e b0 c0 37 be 68 39 db bc c0 c6 71 bd
       0.13531193 -0.17944598 -0.026760772 -0.059027433
000040 0e 68 f9 bd 47 db bf bd 83 00 f6 3d 1b f0 9b be
       -0.1217805 -0.09367996 0.12011816 -0.30456623
000050 c7 e5 5c bd f8 0f 6c 3d 8d 02 a5 3d 80 c1 2e bd
       -0.05393007 0.057632416 0.08057127 -0.042665005
000060 23 d1 1d bd e3 49 99 bc 4e 15 e3 bd 1f 11 53 3d
       -0.038529526 -0.01871199 -0.11088048 0.05153
000070 e8 11 1a 3c c0 6b 05 3d 42 e6 2c 3d 1f b6 1c 3d
       0.009403683 0.03257346 0.04221178 0.03825962
000080 62 68 92 3d 9b 74 08 3e 1d ee e5 bb f7 fb ad 39
       0.07148816 0.13325731 -0.0070169107 0.0003318486
000090 21 36 ac 3d 41 64 e5 bd 05 79 b3 bd c3 f1 8b bc
       0.08408762 -0.112007625 -0.08763317 -0.017083054
0000a0 c6 e3 c2 bc e0 4f 8f bb 25 f6 ac bd 34 f6 a3 3d
       -0.023790251 -0.0043735355 -0.08445386 0.08005944
0000b0 40 4d eb 3d 88 35 46 bd 38 10 d9 3c 0a 3e ff bd
       0.11489344 -0.048390895 0.026496992 -0.12463005
0000c0 d5 a5 45 3d 51 fa 0a 3d 69 fd b3 bd 21 b8 af bc
       0.048253853 0.033930127 -0.087885685 -0.021450104
0000d0 83 00 23 3d 8b 88 aa bd 29 98 d4 bd c5 f8 b0 3c
       0.03979541 -0.08326825 -0.10380585 0.021602998
0000e0 f3 79 1b be 3c 07 eb 3d b3 7a 1a bc b3 30 b7 bc
       -0.15183239 0.11475989 -0.009428668 -0.022362089
0000f0 be 15 c9 bd fd e7 74 3c 0a 48 db 3d 9e ad bd 3c
       -0.098186 0.014947888 0.107071 0.023154076
000100 18 50 b2 bb f0 27 a5 3c 80 c8 ba bd a5 c8 9b bc
       -0.005441677 0.020160645 -0.091202736 -0.019016573
000110 ee d4 36 3d af 1b 71 bc 87 7e 84 be bd b6 e5 ba
       0.04463666 -0.014716073 -0.25877783 -0.0017525774
000120 d8 5f 13 be 49 6d b9 bc da c2 b1 bd 62 e4 09 be
       -0.1439203 -0.022635119 -0.08679743 -0.13466027
000130 1c 86 21 3d 36 48 1c 3c 0c d3 88 bd a7 cf b2 3d
       0.039434537 0.009538701 -0.06680879 0.08731013
000140 74 ec 54 3d ab 75 d9 bd 1a 62 01 be ad 6b 5e 3e
       0.05198331 -0.106181465 -0.12635079 0.21720763
000150 2b 41 1f bd b2 c3 3e bc 4f 59 80 3c 12 db 94 3d
       -0.03888051 -0.011643337 0.015667586 0.07268347
000160 d9 73 8d bd a7 67 d3 bd 7c 19 e1 bd d8 43 81 bc
       -0.06906862 -0.103225045 -0.10991189 -0.01577942
000170 9a e3 a3 bb 75 95 3e bd f6 db f6 3d 20 63 1a bc
       -0.0050014975 -0.046529252 0.12053673 -0.009423047
000180 93 17 dd 3c 2f 4d fa bd d6 d0 df 3d b4 31 1b 3c
       0.02698878 -0.12221753 0.10928504 0.009472299
000190 3d 8b c7 bd c8 52 9c bd 87 bd 64 bd c2 30 e0 3c
       -0.097433545 -0.07632977 -0.05584481 0.027367
0001a0 98 6b 60 3d 65 ad 2b be d2 41 6f 3d a8 3e 1d bd
       0.05479011 -0.16765364 0.05841238 -0.03838983
0001b0 ea eb 96 3d 48 5c f3 bd 18 22 27 bd ee dd 1e 3b
       0.07369216 -0.118828356 -0.040804 0.0024241167
0001c0 3f 31 84 bc b0 6d d2 bc 59 3b b7 3c ac e4 a4 bc
       -0.016136764 -0.025687069 0.022367166 -0.02012857
0001d0 0d 4d 13 be 32 81 ab bd b7 59 39 3d ee 1b 75 3d
       -0.14384861 -0.083742514 0.045251574 0.05984109
0001e0 af 75 ce bd cc 57 a0 bd 92 5f 54 bd bf aa a6 bd
       -0.1008104 -0.07829246 -0.051848955 -0.08138036
0001f0 b3 3d e5 3d b0 6b e2 bc fc 58 a2 bc ed 14 69 bc
       0.11193409 -0.02763924 -0.019817822 -0.0142261805
000200 0c 1e 77 3d 50 bd 47 bc 5f e9 80 bd 74 42 32 be
       0.06033139 -0.012191132 -0.06294512 -0.17408162
000210 2a 7d f2 3d bd 33 cf 3d f6 a4 8b bd 9d 4f 81 bc
       0.118402794 0.1011729 -0.06818573 -0.015785033
000220 14 1d c0 3d 45 19 26 3c 6f d0 03 bc 24 2e 38 bc
       0.09380546 0.010137861 -0.0080453 -0.0112414695
000230 40 8c 9e bd 95 31 13 bd 0e dd 86 3c 64 46 f9 bb
       -0.07741594 -0.035935957 0.016462829 -0.007607268
000240 43 52 4b bd ef 85 f8 3d 80 c4 2e bd c9 34 1c bd
       -0.049638998 0.12134921 -0.042667866 -0.038136277
000250 55 2a d7 bc 12 cf 91 3d 67 cf 07 be b8 3c fa 39
       -0.026265303 0.07119574 -0.13262711 0.00047728955
000260 dc e3 e7 bd 21 ac ab bc c5 25 93 bd d6 94 74 3d
       -0.113227576 -0.0209561 -0.07184938 0.059712254
000270 a1 62 c5 bd 64 5f 41 3d 27 f2 96 bd af 03 55 3d
       -0.096379526 0.047210112 -0.07370406 0.052005466
000280 76 82 19 be 34 66 3e be f9 95 7f bd 10 af 93 bd
       -0.14991173 -0.18593675 -0.062398884 -0.07211125
000290 47 54 18 bd 60 5d 01 3e 34 44 06 bd 1e c9 49 be
       -0.03718975 0.12633276 -0.032779887 -0.19705626
0002a0 22 b4 25 be 52 4c d5 bd c4 82 54 bd 79 e7 d9 3d
       -0.16181996 -0.104149476 -0.05188252 0.10639853
0002b0 2e c8 2a be 90 ff 0d be db 3a 34 be 89 ef 20 be
       -0.16677925 -0.1386702 -0.17600577 -0.15716375
0002c0 80 96 e2 bc 2e 43 be 3c 78 d9 43 3c 2d 1c bf 3d
       -0.027659655 0.023225393 0.011953704 0.09331546
0002d0 a4 fc 1b 3d 87 6a e2 bd 00 fc 58 bd 1a e4 b3 bd
       0.038082734 -0.11055475 -0.0529747 -0.08783741
0002e0 fa b8 16 bd 33 d6 07 3e 82 48 a4 3d 77 b6 c4 3d
       -0.0367975 0.13265304 0.08021642 0.09605115
0002f0 63 47 29 be 5f c4 47 3d 2f d7 ac bd 53 ea ef bd
       -0.16531138 0.04877126 -0.084394805 -0.11714616
000300 f2 0b 0f be 99 3e 20 be 02 5a a2 bd bb 8c b4 3d
       -0.139694 -0.15648879 -0.07927324 0.08815905
000310 6d f1 a0 bc 23 27 fe bd e1 d6 a7 bd fa da d6 3d
       -0.01964637 -0.124098085 -0.08195282 0.10490985
000320 33 6b 03 3f db 4d 21 3e 03 23 0b bf 14 0d 47 bf
       0.5133545 0.15752356 -0.543503 -0.7775433
000330 39 df 2f bf 34 48 7f be 42 83 c9 be a1 45 6a be
       -0.68699986 -0.24929887 -0.39357954 -0.22878124
000340 4b 24 0c bf 56 bc 57 3d 6d 2d 52 bf b0 e3 04 3f
       -0.5474288 0.052669846 -0.82100564 0.51909924
000350 57 88 bb 3c 47 56 03 c0 46 d9 df bf 07 eb 5a bf
       0.02289216 -2.052141 -1.7488182 -0.85514873
000360 8b 75 85 be 73 c2 21 3b c7 6e 8c bf f5 b6 eb be
       -0.2606624 0.002468255 -1.0971307 -0.46038023
000370 f2 c2 d7 3d db 9c 84 3c a1 a2 23 bf 5e 5c 3d 3e
       0.1053523 0.016188076 -0.63920027 0.18492267
000380 2e 56 13 bf 4a 19 c3 bf 21 28 e2 3b 85 bc bd be
       -0.57553375 -1.5242093 0.0069017564 -0.3705789
000390 ac 16 4c bf e6 1b 28 bf 3b b0 6f bf ff 8f 11 3e
       -0.79722095 -0.6566757 -0.9362828 0.14215086
0003a0 5d 89 29 bf 50 96 73 bf c6 16 36 c0 d6 21 15 bf
       -0.66225225 -0.95151234 -2.84514 -0.58254755
0003b0 3f a7 78 bf d0 16 48 bc bd 3d 99 3d d7 9c 58 3d
       -0.971302 -0.01221247 0.07482479 0.05288395
0003c0 a8 db 8c 3e a3 de 20 c0 5b ae 85 3e fc ac d2 be
       0.27511334 -2.5135887 0.26109585 -0.41147602
0003d0 b9 ae 2a bf bb 4f 40 bf 77 5a e6 3d 69 1e 05 3d
       -0.66672856 -0.7512166 0.112477235 0.032499705
0003e0 1a a7 54 bf d4 5d 1d bf 6d 64 ea be 9d 12 64 bd
       -0.83067477 -0.61471295 -0.45779744 -0.055681814
0003f0 41 54 ea bd 45 d6 92 3e a4 cc 81 3d d3 3a 1a bf
       -0.114418514 0.286791 0.0633786 -0.6024601

model.linear2.bias f4 [100]
000000 ed 1d df bd 70 f1 ab bd 9b e3 d1 3e 22 0d 26 3d
       -0.1089438 -0.0839566 0.40993962 0.04053987
000010 01 f6 08 bd 46 39 f9 bd 88 b9 4e bd d9 9f 84 bd
       -0.033437733 -0.12169127 -0.050469905 -0.06475801
000020 13 c9 64 be 51 f6 1a be 64 1e 10 be 70 99 1a 3d
       -0.22342329 -0.15133025 -0.14074093 0.037743986
000030 46 e2 03 bc 06 18 29 be bf 29 78 3d b5 04 c3 3d
       -0.008049553 -0.1651307 0.060586687 0.09522382
000040 c1 ae d8 bd ad 30 b5 3e 19 32 46 3e a0 1c 29 be
       -0.10580207 0.353887 0.19355048 -0.16514826
000050 a1 38 3f bd 1e f6 6f 3e d4 d5 2c be ed d3 3b 3d
       -0.046684865 0.2343373 -0.16878444 0.045856405
000060 4f 4f eb bd d3 92 35 bd d7 d2 ff bd 69 8f b1 bd
       -0.11489736 -0.044329476 -0.124913864 -0.086699314
000070 72 96 10 be 5a c9 e2 bd 5f cc be bc 40 b5 1b be
       -0.1411989 -0.11073561 -0.023290811 -0.1520586
000080 29 a9 84 be 7f 17 b5 3e 49 aa 62 ba 4f 59 19 3d
       -0.2591031 0.3536949 -0.000864659 0.037438687
000090 8a b7 4f be 4a cc 47 3b 8b 85 90 3e 13 76 30 3e
       -0.20284858 0.0030486756 0.28226885 0.17232542
0000a0 8a 36 87 3e 55 50 99 3d 7d 72 b4 bd d6 76 fb bd
       0.26408798 0.07486025 -0.088108994 -0.122785255
0000b0 ce e3 bf bc c5 d1 b0 3d 2f d4 c5 bd 6b 0c 99 bd
       -0.023424055 0.0863376 -0.096596114 -0.07473072
0000c0 75 a1 9c 3e 49 71 d4 3c 41 76 55 3d 04 08 92 ba
       0.30591932 0.025932925 0.05211473 -0.0011141305
0000d0 ab c9 1e 3d e3 d1 30 bc 77 16 22 be 84 a3 25 be
       0.038766544 -0.010792228 -0.15828882 -0.16175658
0000e0 48 58 5b be 1f 5f 37 bd 1b 25 b9 3c 59 a7 88 bb
       -0.21420395 -0.04476845 0.022600701 -0.00417034
0000f0 1a 5d 1a be 10 a9 03 bd 2c 59 b2 3d 54 91 46 bd
       -0.15074578 -0.032143652 0.087084144 -0.04847844
000100 46 70 11 3c 5c 47 32 be a2 2d bc 3e 7c 81 42 3d
       0.008876866 -0.17410034 0.36753565 0.047486767
000110 3e 5b e7 bd bf 4f df bc 7c 00 f3 3d 56 bc 39 be
       -0.112967 -0.027259706 0.11865327 -0.1813825
000120 b4 3c 7f bd d1 26 c8 bd 59 f6 44 3d 1e 6f 38 3e
       -0.06231375 -0.09773029 0.048086498 0.18011138
000130 7d 9c ac be c6 7d 22 3c a2 6f e7 bc 44 b3 4a bd
       -0.3371314 0.009917682 -0.028251473 -0.049487367
000140 1f 24 26 be 24 ec 98 be 19 91 76 be 15 f9 e6 3b
       -0.16224717 -0.2986766 -0.24078788 0.007048736
000150 3a 5f 3a 3e af 29 e4 3c 05 cb bf 3d ca 50 47 be
       0.18200389 0.027851908 0.09364895 -0.19464412
000160 54 b6 e4 be e3 49 9b 3e 4b c3 d0 bd 1a 80 e2 bd
       -0.44670355 0.3032981 -0.10193499 -0.1105959
000170 a3 9c b8 bd 65 ab 0c bd 08 0e 03 bd 2f 75 96 bd
       -0.09014251 -0.034343142 -0.031995803 -0.0734657
000180 0b 24 0e be 8a f5 8a be bf cb 37 3d 53 8e b5 3e
       -0.13880937 -0.27140456 0.04487204 0.35460147

model.linear3.weight f4 [3, 100]
000000 6b 35 a6 bc 4b 49 86 be 8d 30 86 bf e4 ef c8 be
       -0.020289144 -0.26227793 -1.0483567 -0.39245522
000010 27 70 06 bf f7 2f 7b 3a 15 1d 82 be 10 ea a7 be
       -0.5251488 0.00095820375 -0.25412813 -0.32795763
000020 35 79 b3 3c 1c 89 cf be a7 9c 9e bd 40 49 7e be
       0.021908382 -0.40534294 -0.07744723 -0.2483263
000030 f6 86 65 be dd 2b b1 be 23 e5 05 3e f5 ee 06 3e
       -0.22414765 -0.34603778 0.1307569 0.13177092
000040 15 4b b6 be ad 9c f1 3c a2 e7 ea be 5f 51 96 bd
       -0.35604158 0.029493654 -0.45879847 -0.07339739
000050 04 79 35 3d 93 93 81 3e fa 4b 9c be 54 93 a8 be
       0.044304863 0.25307903 -0.30526716 -0.32924902
000060 5b d9 cd be 7f e4 ac 3f de b0 dd bd 96 b6 22 be
       -0.40204892 1.3507231 -0.1082475 -0.15889964
000070 fc 49 e6 bd f9 fe bb bd f7 37 3f 3e 92 eb 97 bc
       -0.1124458 -0.091794915 0.18673693 -0.018544946
000080 9f de 23 bd 5e b1 f9 3e ca bb 0d bd 59 c4 61 3d
       -0.04000723 0.48768133 -0.034602918 0.055118892
000090 df b6 c4 bd c3 24 0e bf 7e 24 7a 3e cf 1a 95 3d
       -0.096051924 -0.55524844 0.24427983 0.07280504
0000a0 d2 01 8f 3f 06 b5 5f bf 9b 3d 72 be 70 f9 bb be
       1.117243 -0.87385595 -0.23656313 -0.36713743
0000b0 f4 8d 60 be 4e 81 4a bf eb 51 60 be 7e 37 27 bf
       -0.21929151 -0.79103553 -0.21906249 -0.6531905
0000c0 70 6e 22 bf c5 97 8c be 84 2e b2 be 56 24 20 bd
       -0.63449764 -0.2745954 -0.34801114 -0.039097153
0000d0 1f 1b d0 be f9 7c 64 bd 5a 1c fe bd 46 b3 a2 be
       -0.40645692 -0.055783246 -0.124077514 -0.317774
0000e0 fb 17 08 bd f0 0a 3b be 1f 98 82 bd c9 ab 49 bf
       -0.033225995 -0.18265891 -0.06376671 -0.7877775
0000f0 a3 d0 74 3d d1 e4 2b be 67 ff fa be f8 52 4f be
       0.059769284 -0.16786505 -0.49022982 -0.20246494
000100 56 06 5c be c9 ba 80 3d 53 02 ee be 0e 5c 99 3d
       -0.21486792 0.062856264 -0.46486148 0.07488261
000110 c9 45 f7 bd 24 54 e2 be 23 9b 8b 3e d3 7b 8c be
       -0.12073857 -0.4420482 0.27266797 -0.2743822
000120 c2 45 3a be 21 a2 9e 3d ad 63 06 3d e7 fa ab bf
       -0.18190673 0.077457674 0.032809902 -1.3435944
000130 57 10 a0 3f 2b 2c 4a 3c ab 07 e6 be 12 1a 62 be
       1.2504987 0.012339632 -0.44927725 -0.22080258
000140 2b 91 08 be f8 7c 02 3f 94 6c 1d be 14 d4 a2 bc
       -0.13336627 0.5097194 -0.1537345 -0.019876517
000150 6d 38 fd 3d e7 d6 e2 be fa 9c 6d 3e 26 44 ab 3d
       0.12364278 -0.44304582 0.23204413 0.08362608
000160 d2 73 1e bf ed 60 b4 bf ba 61 62 be 2a 27 a3 be
       -0.6189548 -1.4092079 -0.22107592 -0.31865817
000170 df 88 3b be 4e 3e cf be 69 fe 7b be 07 c9 8a be
       -0.18313931 -0.40477222 -0.24608769 -0.27106497
000180 07 2f 26 3c 6b 0a c7 bc 8e ec a6 be 9e be 23 3f
       0.010143048 -0.02429696 -0.32602352 0.63962734
000190 c5 4b 3e 3c fd 3a 61 bd cd 3a 08 bf ac b6 1b 3e
       0.011614745 -0.054987896 -0.5321472 0.15206403
0001a0 e4 f9 dd bd fb 35 bb bd d5 e5 5a be af ec f9 3d
       -0.108386785 -0.09141155 -0.21376736 0.12203347
0001b0 3d 4a d5 3d 18 58 61 3d 1c bf d1 bd 0f df 44 3d
       0.104145505 0.055015653 -0.10241529 0.048064288
0001c0 80 c2 2d bc 3d ad 8e 3c 07 b7 8a 3d ee 3c a0 bd
       -0.010605454 0.01741659 0.06773191 -0.078241214
0001d0 2c 36 b9 bd 98 cf 79 3f 05 bb 05 c0 c7 32 58 bd
       -0.090435356 0.9758239 -2.0895398 -0.0527828
0001e0 e4 55 8e bd 01 4b 3c 3e 38 fc 9a bc aa 1b 49 3d
       -0.06949976 0.18387987 -0.018919095 0.049098648
0001f0 90 bc bb 3e 91 3b 81 3e 38 01 3b bf 3d 16 1b bf
       0.366673 0.25240758 -0.73048735 -0.6058081
000200 6a d8 6d bd 27 43 6d bd f7 1e 5b be c8 4a 4a be
       -0.058067717 -0.05792537 -0.21398531 -0.1975509
000210 17 59 f1 3d 0f 98 b1 3e 69 39 5d bd cf 7a 09 bd
       0.11784571 0.34686324 -0.05400983 -0.033564385
000220 8d ab df 3a e7 18 bc 3c 12 c9 23 3e e0 13 54 3d
       0.0017064676 0.022961093 0.15994671 0.051776767
000230 10 04 17 bf 81 02 02 3e a6 ff d8 3d 75 1f 76 3c
       -0.58990574 0.12696268 0.10595636 0.015022148
000240 b5 3f 0e 3c 5f ed fd be 69 b6 7c bc 1a 5e 6f 3e
       0.008682181 -0.49595162 -0.015424349 0.2337574
000250 27 9c 84 3f ec 90 10 3d 3c 0a 08 bc 70 dd 0e 3d
       1.0360154 0.03529446 -0.008303221 0.034879148
000260 58 c0 ca 3d da 49 28 3d b7 d8 88 bd 12 f6 05 3a
       0.09899968 0.041086055 -0.0668196 0.00051102147
000270 b7 83 d5 be d7 bf a3 3c 79 43 6e 3d 45 77 c9 3e
       -0.41702053 0.019988937 0.058169816 0.39348808
000280 e1 6c 36 be ba 53 2a ba 50 14 e8 be 6d dc a2 3e
       -0.17814972 -0.00064974616 -0.45327997 0.31808797
000290 83 48 df 3c 89 17 0b be 6d a6 7f bf ca 95 89 3d
       0.027256256 -0.13583197 -0.9986332 0.06718023
0002a0 4b 72 7d be 95 40 3d 3d 01 3d 5c 3e bd d5 2d be
       -0.2475063 0.04620417 0.21507646 -0.16976066
0002b0 ba 63 27 3a 74 2b 83 be 12 11 87 bb 4d 5c 7a be
       0.0006385405 -0.2561909 -0.004121908 -0.24449272
0002c0 20 77 7a bf 7a c1 2f bc e5 77 3a be 0e df d2 3d
       -0.9783802 -0.010727281 -0.18209799 0.102964506
0002d0 6e ad 95 bd 9d 91 4d bf 11 b6 50 be a0 11 e4 38
       -0.0730847 -0.80300313 -0.20381953 0.0001087517
0002e0 1b 0c 9b 3d ac 2b 17 3f ee 80 c0 bd 84 a0 51 be
       0.07570668 0.59051013 -0.093995914 -0.20471388
0002f0 25 9f 46 3f 16 27 97 3f 5d 0c 04 3d 80 71 de bb
       0.77586585 1.1808803 0.032238353 -0.0067884326
000300 34 2a 92 3c d2 8e 59 b9 9e e8 4a 3d d2 29 03 3d
       0.01784239 -0.00020747937 0.049538247 0.032022305
000310 7f a5 98 bc d9 44 03 3e 88 4f 06 bf fb 5a 10 3f
       -0.018633602 0.12819232 -0.52465105 0.56388825
000320 2f 1d 99 bd 4b c6 b1 bd 0e 44 2b 3d af 62 3c 3d
       -0.074762695 -0.086803995 0.04181295 0.04599255
000330 2d fb 5f bb b4 0e dd bd 95 ad ad bd 24 1d 16 3c
       -0.0034176812 -0.1079382 -0.08480374 0.009162221
000340 f3 53 11 bd 7f 7a 18 3d 56 a8 0b 3e e8 a1 66 bd
       -0.03548045 0.037226196 0.13638434 -0.05630675
000350 22 36 49 3c 8a 77 ef bd 9b 90 70 3d 26 c0 03 3e
       0.012280973 -0.11692722 0.058731657 0.12866268
000360 72 66 16 3c 62 e6 35 3c 4c 04 62 3c 3c d1 a4 bd
       0.009179698 0.011102291 0.01379497 -0.08047721
000370 36 94 03 3e 0f 67 e8 3c be 2d 35 3e a5 2c 55 bd
       0.12849507 0.028369455 0.1769323 -0.05204453
000380 b1 e5 f2 3d 05 6a 1a bd 9a 11 2e 3c 73 6b 0e 3d
       0.118602164 -0.037698764 0.010624314 0.03477044
000390 ed c5 ca bc b9 18 f8 3d 05 7c 38 bd 31 72 96 3d
       -0.024752581 0.121140905 -0.04504015 0.07345999
0003a0 ca 5c 18 3d 3d 80 a9 3c d8 7b f8 bc 57 cf 24 3d
       0.037197866 0.020691032 -0.03033249 0.040236797
0003b0 46 d6 f8 bc 87 27 58 bc a0 57 b8 3c 4f 1b 40 3d
       -0.030375611 -0.013193018 0.02250272 0.046901044
0003c0 f5 f8 0b bd eb e7 ee bc d5 9d 20 bd 18 39 98 bb
       -0.03417297 -0.029163321 -0.03921302 -0.004645478
0003d0 e7 8f c0 bd 27 36 67 bd 24 86 cf bc 8e 1c ab bd
       -0.09402447 -0.056448128 -0.025332518 -0.08355056
0003e0 b8 b9 15 bc 14 5a 27 bd e0 db 81 bd 86 51 64 3d
       -0.009138517 -0.04085739 -0.06340766 0.05574181
0003f0 39 7c 9a bd ce 36 b0 3d 73 c1 f4 3d 55 7f b0 bb
       -0.07543225 0.08604203 0.1195096 -0.005386273

model.linear3.bias f4 [3]
000000 44 38 79 3e a9 9a 8a 3c c5 42 43 3d
       0.2433787 0.01691945 0.0476711
